TrainData.pth (torch, 5095 bytes, 6 tensors)

l1.weight f4 [8, 44]
00000000: f9ed 23bf e3e3 88be 3153 f9bd d924 cb3e
00000010: c20d a63e ff48 be3e a3c7 30be 9282 6b3f
00000020: c740 37bf c006 5ebb de16 803e f7aa a13e
00000030: 5501 323d 1c53 983d b8e5 73bd 16f1 01be
00000040: 89f8 2d3e a82b 673f 4ad4 03bf 5e6a 9abc
00000050: 3e49 a93f 7225 203e b4e0 973d d372 00be
00000060: c111 87be 8252 bfbe c70c 24bf e860 803c
00000070: 2d47 0a3e dd6b ebbd 1efc 963d f9df 0e3e
00000080: 9b63 24bf fd36 bdbd fb99 debd 28ad 593f
00000090: 7fae d33e 1a2e de3e a575 4a3f ca0f 253f
000000a0: 061f 2dbe 6048 24bf fbc7 92bd 698a 27bf
000000b0: fb4e a0be 0c7a 5abc fa23 173f 6a91 e2be
000000c0: 64be 8c3f 572e 96be 0eda 053f 0595 623f
000000d0: 86b6 3c3f b41d 6f3e 3335 4a3f ac03 513f
000000e0: 16d7 3e3f f9fd 383e 1d57 543f 1617 6e3e
000000f0: 5585 0a3f 5c46 eebe 5a09 20bf 57bf 293f
00000100: d638 94be 3883 493f d027 273e 0a2d 8a3e
00000110: 08b1 02bf 25f5 2cbe aec7 73bf d28f 053f
00000120: 4a28 383f 582a 133f 0f22 1e3f 7bc8 1a3e
00000130: bf35 f4be 3118 ed3e 7c50 ba3f 9730 41bc
00000140: ede2 95be 7a5e 47bf 4e34 60bf c605 ffbe
00000150: 530b 903e 645e 523f 82aa 2f3f 6055 063f
00000160: d12f 133f 870b c0be 9557 9c3e 740e ce3e
00000170: 31b7 a0bd d1c9 f53e 17d9 383e 127a 2abf
00000180: 4062 d5be 5f5b 4abd 5dec 21bd 9783 03be
00000190: 9d64 e43d 9aa2 eb3d ee22 c0bd 7f6f b03d
000001a0: 4f6a cc3e 52f2 f43d fc54 0a3f 7e1d 413f
000001b0: 2aed 5cbe 460a 88bf 3146 fa3e 1785 b63c
000001c0: 17f5 4e3f 967c 96be beb0 983f 9875 b43e
000001d0: 5c78 c9be 4a48 823e b2ba 163f ce56 003f
000001e0: 3010 29bf 204e 2e3f d040 83bf d31e 40be
000001f0: ab71 263f cf8f 773f 1949 aabe 2261 9abe
00000200: 6ff0 71be 7fc3 bf3f 3ad9 933e ed15 9d3f
00000210: 9cd2 3fbf bf5f 573f 0036 f03e 2fc6 793e
00000220: 4bb2 53be 03b0 003f 0b1d fb3e 66c8 4fbe
00000230: 02c9 c33e 93b1 9c3e 9918 96be c1f5 70be
00000240: 00f2 683d a2d1 053f c67f 01bb aa6e 063f
00000250: 4d28 ee3e ffc2 73bf afed bc3e 9e58 1dbd
00000260: c83a 21bf b0d7 503e 170f 5a3c bf0a a83e
00000270: 7fbd ed3e 6e10 683f c7c9 673f 5ffd ea3e
00000280: 5c84 c5be 18fe 0c3f 7a38 27be 407c b03e
00000290: a56b a23f c5b9 f83d 32d2 3fbf ccc2 aa3d
000002a0: cd3f 133f e1cf 1a3f 603b f43e c5db 4d3f
000002b0: a29c 113f a4ac 3fbf 6508 8a3e eea6 31bf
000002c0: 6788 763f 0e52 04bd 390c 22bf e4c9 833d
000002d0: 8c27 193f 4561 40bc e018 2dbf 39b4 023f
000002e0: 5e98 893f fc07 053b 50da 163f 79f5 1f3f
000002f0: dc07 bc3e 0542 353e d196 98be 41ea cbbc
00000300: 799a 9fbe 8dfa ef3f e0a5 cfbe 0c76 313e
00000310: 849c 713f 68e5 ba3f d1ce 423f 3589 6d3e
00000320: 2da3 85be ebed 0abd 45c7 1fbf c0d9 4ebe
00000330: 6aae a7be 101f 2abf 9262 6e3e 631a 773e
00000340: 510f 1ebe f8ce 953d 309d 40bf 6dcd b23f
00000350: 96a3 093d 36a8 463e 0ddc 363f ec58 913f
00000360: e5c9 9d3e 014d 0ebf d48b 1bbe c99b 5bbf
00000370: 6a45 5ebf 3377 8a3e f29d 5d3f 344a 183f
00000380: 7f9f de3e d702 1d3f f2f1 1a3f 0adc 243d
00000390: 4856 5ebf 4c82 1e3e eeb2 273f 8d33 f13e
000003a0: 9f9a 4f3e 285a 3c3e 1044 07be b09b 493d
000003b0: 2879 da3e fb0f acbf 814e 6b3e 1523 373e
000003c0: d584 e9be 2cd2 0d3f 0a68 9dbe 6b7b 8f3e
000003d0: 27a5 dc3e 0ea5 513e 3e2a 8a3e 27e6 973e
000003e0: e079 e8be a3ad 303f 6bd7 2f3e 82d4 a63e
000003f0: d4b5 bb3e 9aad 803e 16d2 4ebf 6f05 9dbe
-0.6403499 -0.26736364 -0.121740706 0.3967655 0.3243237 0.37165067 -0.17263655 0.9199611
-0.7158322 -0.0033878535 0.25017446 0.31575748 0.0434583 0.07437727 -0.05954525 -0.12689623
0.1698934 0.9030099 -0.514958 -0.018849548 1.3225477 0.15639284 0.074159056 -0.12543802
-0.26380733 -0.37367636 -0.64081997 0.015671209 0.13503714 -0.11495183 0.07372306 0.13952626
-0.64214486 -0.09239004 -0.10869213 0.8502984 0.41344067 0.43394548 0.7908576 0.6447722
-0.16906366 -0.64172935 -0.071670495 -0.6544557 -0.31310257 -0.013334762 0.5903927 -0.44251567
1.0995603 -0.2933223 0.5228585 0.88508636 0.7371601 0.23351175 0.78987426 0.8164623
0.74546945 0.18065633 0.82945424 0.23250994 0.541097 -0.46538055 -0.6251427 0.66307586
-0.28949612 0.7871585 0.16323781 0.26987487 -0.5105138 -0.1689039 -0.9522656 0.5217258
0.71936476 0.57486486 0.6177072 0.1511554 -0.47697255 0.4630752 1.4555812 -0.01179137
-0.29274693 -0.77878535 -0.8757981 -0.49809092 0.2813364 0.8217528 0.6861955 0.5247402
0.5749484 -0.37508795 0.3053557 0.40245402 -0.07847441 0.48005536 0.18051563 -0.66592515
-0.4167652 -0.049403545 -0.039532054 -0.12843166 0.11152003 0.11505623 -0.09381662 0.08615016
0.39924857 0.119602814 0.54035926 0.75435627 -0.21574846 -1.0628135 0.48881677 0.022280259
0.8084273 -0.29391927 1.1928937 0.35245967 -0.3934964 0.25445777 0.58878624 0.50132453
-0.66040325 0.6808796 -1.0254154 -0.18761759 0.65017194 0.9670381 -0.33258894 -0.3015223
-0.23626874 1.4981536 0.28876668 1.2272316 -0.7493074 0.8413047 0.469162 0.24392007
-0.20673482 0.5026857 0.49045596 -0.2029129 0.38239294 0.30604228 -0.29315642 -0.23531248
0.056871414 0.52273 -0.0019759997 0.5251261 0.46515122 -0.95219415 0.36900088 -0.03841459
-0.6298032 0.20394778 0.013309262 0.328207 0.46433637 0.9065007 0.9054226 0.45896432
-0.38577545 0.55075216 -0.16330138 0.34469795 1.26891 0.12144808 -0.7493011 0.08337936
0.5751923 0.6047345 0.4770155 0.80413467 0.5687963 -0.74872804 0.2695953 -0.6939534
0.96301883 -0.032304816 -0.632999 0.06434992 0.5982597 -0.011741941 -0.6761608 0.5105625
1.0749624 0.0020298949 0.5892687 0.62483937 0.36724746 0.17700966 -0.29802564 -0.024891974
-0.3117254 1.8748337 -0.4055624 0.17330188 0.9437945 1.4601259 0.76096827 0.23196872
-0.26101056 -0.033918303 -0.62413436 -0.20200253 -0.32750255 -0.6645365 0.23279789 0.2413116
-0.1543553 0.07314867 -0.7523985 1.3968941 0.033603273 0.19400105 0.7142952 1.1355262
0.30818096 -0.5558625 -0.15190059 -0.85784584 -0.8682467 0.27044067 0.8656913 0.59488225
0.4348106 0.6133246 0.6052543 0.040248908 -0.86850405 0.15479392 0.655074 0.47109643
0.20273827 0.18393767 -0.13209558 0.04922074 0.4267056 -1.3442377 0.22979166 0.17884476
-0.45609155 0.5539882 -0.30743438 0.28023848 0.4309475 0.2047312 0.26985353 0.2966778
-0.45405483 0.6901495 0.17172019 0.32584006 0.3666216 0.25132447 -0.80789316 -0.30668208

l1.bias f4 [8]
00000000: cf21 243f cb14 893f f76b 8a3f dcc8 3f3f
00000010: 7db9 933f ab85 5d3f b6c7 373f bfd3 4b3f
0.6411409 1.070947 1.0814198 0.7491586 1.1540982 0.86532086 0.7178911 0.79619974

l2.weight f4 [8, 8]
00000000: cac0 3fbf 3e16 473c dd21 05bf 6d9e 803f
00000010: d28b 453f 8473 0f3e 16de 27bf 7865 1a3f
00000020: 9940 8b3f c4e3 8b3e 2961 c93e 2174 98bd
00000030: b6c2 a63f 0e26 333f e3de 3dbf 2da6 a1bf
00000040: 63c9 3cbe dd59 c8be 0759 b13f 6d80 f83f
00000050: b3b8 d33d 8200 e13f 31df a13f 162c acbd
00000060: c28f e9bf 1c46 5f3e bd2f 803f 2277 4c3f
00000070: c03f 95bf 4b64 bb3e 8686 493f 6ca3 ca3f
00000080: a907 d7be e634 2e3f 4819 bdbe f4a3 833f
00000090: 8d00 2c3e a47b eebd 584f a2be 034c d23f
000000a0: f796 413f 1ca5 a73f e54f 8cbf ddf5 a63e
000000b0: 5ee4 9f3f 9131 ea3d 6e5d 1fbf ea04 483f
000000c0: daec f9be 6c7d cfbe b142 bd3f 8290 82be
000000d0: 9655 533f 02b2 83bf f4ed d7be 1a77 2d3f
000000e0: 5e11 29bf abee f13f f34d 4d3f dfac 9dbf
000000f0: f2c6 82bc a4c3 ac3e 4dae 263f 4cfd 8bbe
-0.7490355 0.012151299 -0.52004796 1.0048348 0.77166474 0.1400891 -0.6557325 0.6031108
1.0879089 0.2732221 0.3933194 -0.07444025 1.3028171 0.6997994 -0.74168223 -1.2628838
-0.18436198 -0.3913106 1.3855294 1.9414192 0.10337963 1.757828 1.2646238 -0.08406846
-1.8246996 0.21804088 1.0014569 0.7986928 -1.166008 0.36599955 0.7872089 1.5831122
-0.41998032 0.68049467 -0.3693335 1.028441 0.16797085 -0.11644676 -0.3170116 1.6429447
0.7562098 1.3097262 -1.0961882 0.32609454 1.2491567 0.11435235 -0.6225194 0.781325
-0.48813516 -0.40525377 1.4785978 -0.25500876 0.8255247 -1.0288699 -0.4217373 0.6775986
-0.66042125 1.8900961 0.80197066 -1.2318381 -0.015964005 0.33743012 0.6510971 -0.27341688

l2.bias f4 [8]
00000000: f1a8 b6be b120 623f ffa6 143f e68b 2c3e
00000010: 3927 633e b0f4 223f 9778 4a3e cf21 4b3f
-0.35675767 0.88331133 0.58067316 0.16850242 0.22182931 0.63654613 0.19772564 0.7934846

l3.weight f4 [15, 8]
00000000: 3c76 f13e caf5 11be 88ac 0bc0 d44c c4bf
00000010: 1139 7a3e 3471 c13e 5acf 363d ae16 e4be
00000020: 8266 10c0 2abe ea3e 3331 00c0 74e2 85bf
00000030: ad98 97bf 8449 2a3f c8b4 ccbf 600b ffbe
00000040: 61a3 193e f4c4 2d3f 2b10 7dbf 20eb 77bf
00000050: 8239 4abf 3068 663d 1b65 39c0 4ea8 383e
00000060: 92e0 59bf 2d43 2e3f 5e45 09bf 2c3f 4ebf
00000070: b228 1ec0 fbf0 093d e405 ac3e 8f20 08c0
00000080: 7fdd 56bf 055c 5f3e 6e1b 10bf 333f 82bf
00000090: 417f 11bf 5f12 38bf b2ad 643f df72 c23e
000000a0: 110d bdbe 34cd d7bf e8b9 0c3f 17aa 223f
000000b0: c04b a3be e1d0 cdbf aee6 743e 06fd 85bf
000000c0: ad83 c3bf 4741 90bf 2048 ec3e d9f9 c53e
000000d0: 6b0f 03bd caf7 90be 4ba0 19c0 5fd4 963d
000000e0: ef80 613f 5bfa b6bf aead 8fbf 726a 21be
000000f0: 8b91 0d3f b276 863e 2db4 cf3e 7bb5 85be
00000100: 5557 f7bf 95b5 82be 0a44 863e a3fd ddbf
00000110: f72c a4be 11f0 2cbe d8c4 f6bf d63c 793f
00000120: 3c56 773f dd7f c9bf 2b5d 603e 3c6a 313e
00000130: 0f6f fe3e 971d 9ebe fb75 9fbf b11f c9bf
00000140: 0f1e a6bf 7164 8bbf 5611 c7bf ebb0 d83d
00000150: e0ee 333f cc88 c03e c0da 9dbf 317b 323f
00000160: 9d10 7bbf 97bc 033e abcb 433f 1b0c 213d
00000170: 22fb d5bf 1bdc 83bf 9aa8 5dbf 74d7 8cbf
00000180: ba6b 58be d184 51be 9763 ae3e 3e72 7dbf
00000190: 71c5 053e 723c 8f3c abca 83be e653 c1bf
000001a0: c839 c7bf ced9 5abf 7db5 2b3e ac02 f3bc
000001b0: e59a e1bf 3cbc 57bf ded3 cebe 0748 6f3f
000001c0: 909f d8bf d2f3 e8bf fb87 23bf 35d2 be3e
000001d0: d2e0 923e 119b 22bf 6204 8c3f 68f1 9d3e
0.47160518 -0.14253917 -2.1824055 -1.5335946 0.24435832 0.3778168 0.04463134 -0.44548553
-2.2562566 0.4584821 -2.003003 -1.0459733 -1.1843468 0.66518426 -1.599267 -0.49813366
0.1500373 0.6787865 -0.98852795 -0.9684315 -0.78994 0.056251705 -2.896796 0.18032953
-0.8510829 0.6807125 -0.5362147 -0.8056514 -2.4712338 0.033677083 0.33598244 -2.1269872
-0.83931726 0.21812446 -0.56291854 -1.0175537 -0.568348 -0.7190303 0.8932754 0.37978265
-0.3692403 -1.6859498 0.5497117 0.63540787 -0.3189373 -1.607937 0.23916122 -1.0467842
-1.5274559 -1.1269921 0.46148777 0.3866718 -0.031997126 -0.28314048 -2.4004085 0.07364725
0.8808736 -1.4295152 -1.1224878 -0.15763262 0.55300206 0.26262432 0.4056715 -0.2611502
-1.9323527 -0.2552916 0.26223785 -1.7343029 -0.32065555 -0.16888453 -1.9278822 0.97358453
0.9661596 -1.5742146 0.21910541 0.17325681 0.49694106 -0.3088195 -1.245788 -1.5712796
-1.2977923 -1.0890027 -1.5552166 0.105806194 0.7028637 0.37604368 -1.2332382 0.69719225
-0.98072225 0.1286491 0.7648265 0.039318185 -1.6717265 -1.0301546 -0.8658539 -1.1003251
-0.21134844 -0.20460822 0.34060356 -0.99002445 0.13063599 0.017484877 -0.2574056 -1.5103729
-1.5564508 -0.85488594 0.16768451 -0.02966436 -1.7625395 -0.842716 -0.40396017 0.9346928
-1.6923695 -1.8199408 -0.63879365 0.3726975 0.2868715 -0.6351786 1.0938838 0.3084824

l3.bias f4 [15]
00000000: 4719 16be 2153 fa3d 540f c1bd 84de 73be
00000010: c513 f9bc 8369 a0be f8e6 1f3d eb43 dcbe
00000020: 0d56 343e eb46 5dbe 8e54 4c3e 5f67 003d
00000030: a557 0bbd 3a49 57bd 58c1 3fbb
-0.1465808 0.12222887 -0.09426752 -0.23815352 -0.030404935 -0.313305 0.03903863 -0.43020567
0.17610951 -0.21609084 0.1995413 0.031348582 -0.03401913 -0.05256007 -0.002925953
